…
1332 instances loaded from ../dataset/Biaffine/glove/MAMS/valid.json
42 batches created for ../dataset/Biaffine/glove/MAMS/valid.json
1336 instances loaded from ../dataset/Biaffine/glove/MAMS/test.json
42 batches created for ../dataset/Biaffine/glove/MAMS/test.json
/mnt/data2/xfbai/Anaconda/envs/py36torch1.2new/lib/python3.6/site-packages/torch/nn/modules/rnn.py:51: UserWarning: dropout option adds dropout after all but last recurrent layer, so non-zero dropout expects num_layers greater than 1, but got dropout=0.1 and num_layers=1
  "num_layers={}".format(dropout, num_layers))
RGATABSA(
  (enc): ABSAEncoder(
    (emb): Embedding(8403, 300, padding_idx=0)
    (pos_emb): Embedding(19, 30, padding_idx=0)
    (post_emb): Embedding(142, 30, padding_idx=0)
    (dep_emb): Embedding(46, 30, padding_idx=0)
    (encoder): DoubleEncoder(
      (emb): Embedding(8403, 300, padding_idx=0)
      (pos_emb): Embedding(19, 30, padding_idx=0)
      (post_emb): Embedding(142, 30, padding_idx=0)
      (dep_emb): Embedding(46, 30, padding_idx=0)
      (Sent_encoder): LSTM(360, 50, batch_first=True, dropout=0.1, bidirectional=True)
      (rnn_drop): Dropout(p=0.1, inplace=False)
      (in_drop): Dropout(p=0.7, inplace=False)
      (graph_encoder): RGATEncoder(
        (transformer): ModuleList(
          (0): RGATLayer(
            (self_attn): MultiHeadedAttention(
              (linear_keys): Linear(in_features=100, out_features=100, bias=True)
              (linear_values): Linear(in_features=100, out_features=100, bias=True)
              (linear_query): Linear(in_features=100, out_features=100, bias=True)
              (linear_structure_k): Linear(in_features=30, out_features=20, bias=True)
              (linear_structure_v): Linear(in_features=30, out_features=20, bias=True)
              (softmax): Softmax(dim=-1)
              (dropout): Dropout(p=0, inplace=False)
              (final_linear): Linear(in_features=100, out_features=100, bias=True)
            )
            (feed_forward): PositionwiseFeedForward(
              (w_1): Linear(in_features=100, out_features=100, bias=True)
              (w_2): Linear(in_features=100, out_features=100, bias=True)
              (layer_norm): LayerNorm((100,), eps=1e-06, elementwise_affine=True)
              (dropout_1): Dropout(p=0, inplace=False)
              (relu): ReLU()
              (dropout_2): Dropout(p=0, inplace=False)
            )
            (layer_norm): LayerNorm((100,), eps=1e-06, elementwise_affine=True)
            (dropout): Dropout(p=0, inplace=False)
          )
          (1): RGATLayer(
            (self_attn): MultiHeadedAttention(
              (linear_keys): Linear(in_features=100, out_features=100, bias=True)
              (linear_values): Linear(in_features=100, out_features=100, bias=True)
              (linear_query): Linear(in_features=100, out_features=100, bias=True)
              (linear_structure_k): Linear(in_features=30, out_features=20, bias=True)
              (linear_structure_v): Linear(in_features=30, out_features=20, bias=True)
              (softmax): Softmax(dim=-1)
              (dropout): Dropout(p=0, inplace=False)
              (final_linear): Linear(in_features=100, out_features=100, bias=True)
            )
            (feed_forward): PositionwiseFeedForward(
              (w_1): Linear(in_features=100, out_features=100, bias=True)
              (w_2): Linear(in_features=100, out_features=100, bias=True)
              (layer_norm): LayerNorm((100,), eps=1e-06, elementwise_affine=True)
              (dropout_1): Dropout(p=0, inplace=False)
              (relu): ReLU()
              (dropout_2): Dropout(p=0, inplace=False)
            )
            (layer_norm): LayerNorm((100,), eps=1e-06, elementwise_affine=True)
            (dropout): Dropout(p=0, inplace=False)
          )
          (2): RGATLayer(
            (self_attn): MultiHeadedAttention(
              (linear_keys): Linear(in_features=100, out_features=100, bias=True)
              (linear_values): Linear(in_features=100, out_features=100, bias=True)
              (linear_query): Linear(in_features=100, out_features=100, bias=True)
              (linear_structure_k): Linear(in_features=30, out_features=20, bias=True)
              (linear_structure_v): Linear(in_features=30, out_features=20, bias=True)
              (softmax): Softmax(dim=-1)
              (dropout): Dropout(p=0, inplace=False)
              (final_linear): Linear(in_features=100, out_features=100, bias=True)
            )
            (feed_forward): PositionwiseFeedForward(
              (w_1): Linear(in_features=100, out_features=100, bias=True)
              (w_2): Linear(in_features=100, out_features=100, bias=True)
              (layer_norm): LayerNorm((100,), eps=1e-06, elementwise_affine=True)
              (dropout_1): Dropout(p=0, inplace=False)
              (relu): ReLU()
              (dropout_2): Dropout(p=0, inplace=False)
            )
            (layer_norm): LayerNorm((100,), eps=1e-06, elementwise_affine=True)
            (dropout): Dropout(p=0, inplace=False)
          )
          (3): RGATLayer(
            (self_attn): MultiHeadedAttention(
              (linear_keys): Linear(in_features=100, out_features=100, bias=True)
              (linear_values): Linear(in_features=100, out_features=100, bias=True)
              (linear_query): Linear(in_features=100, out_features=100, bias=True)
              (linear_structure_k): Linear(in_features=30, out_features=20, bias=True)
              (linear_structure_v): Linear(in_features=30, out_features=20, bias=True)
              (softmax): Softmax(dim=-1)
              (dropout): Dropout(p=0, inplace=False)
              (final_linear): Linear(in_features=100, out_features=100, bias=True)
            )
            (feed_forward): PositionwiseFeedForward(
              (w_1): Linear(in_features=100, out_features=100, bias=True)
              (w_2): Linear(in_features=100, out_features=100, bias=True)
              (layer_norm): LayerNorm((100,), eps=1e-06, elementwise_affine=True)
              (dropout_1): Dropout(p=0, inplace=False)
              (relu): ReLU()
              (dropout_2): Dropout(p=0, inplace=False)
            )
            (layer_norm): LayerNorm((100,), eps=1e-06, elementwise_affine=True)
            (dropout): Dropout(p=0, inplace=False)
          )
        )
        (layer_norm): LayerNorm((100,), eps=1e-06, elementwise_affine=True)
      )
      (out_map): Linear(in_features=100, out_features=50, bias=True)
    )
    (inp_map): Linear(in_features=100, out_features=50, bias=True)
    (out_gate_map): Linear(in_features=100, out_features=50, bias=True)
  )
  (classifier): Linear(in_features=50, out_features=3, bias=True)
)
Total parameters: 2956373
Training Set: 350
Valid Set: 42
Test Set: 42
Epoch 1------------------------------------------------------------
19/350 train_loss: 1.094429, train_acc: 44.843750
39/350 train_loss: 1.003054, train_acc: 50.546875
59/350 train_loss: 0.967447, train_acc: 52.864583
79/350 train_loss: 0.952163, train_acc: 53.945312
99/350 train_loss: 0.937734, train_acc: 55.125000
…
