…
632 instances loaded from ../dataset/Biaffine/glove/Laptops/valid.json
20 batches created for ../dataset/Biaffine/glove/Laptops/valid.json
632 instances loaded from ../dataset/Biaffine/glove/Laptops/test.json
20 batches created for ../dataset/Biaffine/glove/Laptops/test.json
/mnt/data2/xfbai/Anaconda/envs/py36torch1.2new/lib/python3.6/site-packages/torch/nn/modules/rnn.py:51: UserWarning: dropout option adds dropout after all but last recurrent layer, so non-zero dropout expects num_layers greater than 1, but got dropout=0.1 and num_layers=1
  "num_layers={}".format(dropout, num_layers))
RGATABSA(
  (enc): ABSAEncoder(
    (emb): Embedding(3525, 300, padding_idx=0)
    (pos_emb): Embedding(46, 30, padding_idx=0)
    (post_emb): Embedding(168, 30, padding_idx=0)
    (dep_emb): Embedding(34, 30, padding_idx=0)
    (encoder): DoubleEncoder(
      (emb): Embedding(3525, 300, padding_idx=0)
      (pos_emb): Embedding(46, 30, padding_idx=0)
      (post_emb): Embedding(168, 30, padding_idx=0)
      (dep_emb): Embedding(34, 30, padding_idx=0)
      (Sent_encoder): LSTM(360, 50, batch_first=True, dropout=0.1, bidirectional=True)
      (rnn_drop): Dropout(p=0.1, inplace=False)
      (in_drop): Dropout(p=0.7, inplace=False)
      (graph_encoder): RGATEncoder(
        (transformer): ModuleList(
          (0): RGATLayer(
            (self_attn): MultiHeadedAttention(
              (linear_keys): Linear(in_features=100, out_features=100, bias=True)
              (linear_values): Linear(in_features=100, out_features=100, bias=True)
              (linear_query): Linear(in_features=100, out_features=100, bias=True)
              (linear_structure_k): Linear(in_features=30, out_features=20, bias=True)
              (linear_structure_v): Linear(in_features=30, out_features=20, bias=True)
              (softmax): Softmax(dim=-1)
              (dropout): Dropout(p=0, inplace=False)
              (final_linear): Linear(in_features=100, out_features=100, bias=True)
            )
            (feed_forward): PositionwiseFeedForward(
              (w_1): Linear(in_features=100, out_features=100, bias=True)
              (w_2): Linear(in_features=100, out_features=100, bias=True)
              (layer_norm): LayerNorm((100,), eps=1e-06, elementwise_affine=True)
              (dropout_1): Dropout(p=0, inplace=False)
              (relu): ReLU()
              (dropout_2): Dropout(p=0, inplace=False)
            )
            (layer_norm): LayerNorm((100,), eps=1e-06, elementwise_affine=True)
            (dropout): Dropout(p=0, inplace=False)
          )
          (1): RGATLayer(
            (self_attn): MultiHeadedAttention(
              (linear_keys): Linear(in_features=100, out_features=100, bias=True)
              (linear_values): Linear(in_features=100, out_features=100, bias=True)
              (linear_query): Linear(in_features=100, out_features=100, bias=True)
              (linear_structure_k): Linear(in_features=30, out_features=20, bias=True)
              (linear_structure_v): Linear(in_features=30, out_features=20, bias=True)
              (softmax): Softmax(dim=-1)
              (dropout): Dropout(p=0, inplace=False)
              (final_linear): Linear(in_features=100, out_features=100, bias=True)
            )
            (feed_forward): PositionwiseFeedForward(
              (w_1): Linear(in_features=100, out_features=100, bias=True)
              (w_2): Linear(in_features=100, out_features=100, bias=True)
              (layer_norm): LayerNorm((100,), eps=1e-06, elementwise_affine=True)
              (dropout_1): Dropout(p=0, inplace=False)
              (relu): ReLU()
              (dropout_2): Dropout(p=0, inplace=False)
            )
            (layer_norm): LayerNorm((100,), eps=1e-06, elementwise_affine=True)
            (dropout): Dropout(p=0, inplace=False)
          )
          (2): RGATLayer(
            (self_attn): MultiHeadedAttention(
              (linear_keys): Linear(in_features=100, out_features=100, bias=True)
              (linear_values): Linear(in_features=100, out_features=100, bias=True)
              (linear_query): Linear(in_features=100, out_features=100, bias=True)
              (linear_structure_k): Linear(in_features=30, out_features=20, bias=True)
              (linear_structure_v): Linear(in_features=30, out_features=20, bias=True)
              (softmax): Softmax(dim=-1)
              (dropout): Dropout(p=0, inplace=False)
              (final_linear): Linear(in_features=100, out_features=100, bias=True)
            )
            (feed_forward): PositionwiseFeedForward(
              (w_1): Linear(in_features=100, out_features=100, bias=True)
              (w_2): Linear(in_features=100, out_features=100, bias=True)
              (layer_norm): LayerNorm((100,), eps=1e-06, elementwise_affine=True)
              (dropout_1): Dropout(p=0, inplace=False)
              (relu): ReLU()
              (dropout_2): Dropout(p=0, inplace=False)
            )
            (layer_norm): LayerNorm((100,), eps=1e-06, elementwise_affine=True)
            (dropout): Dropout(p=0, inplace=False)
          )
          (3): RGATLayer(
            (self_attn): MultiHeadedAttention(
              (linear_keys): Linear(in_features=100, out_features=100, bias=True)
              (linear_values): Linear(in_features=100, out_features=100, bias=True)
              (linear_query): Linear(in_features=100, out_features=100, bias=True)
              (linear_structure_k): Linear(in_features=30, out_features=20, bias=True)
              (linear_structure_v): Linear(in_features=30, out_features=20, bias=True)
              (softmax): Softmax(dim=-1)
              (dropout): Dropout(p=0, inplace=False)
              (final_linear): Linear(in_features=100, out_features=100, bias=True)
            )
            (feed_forward): PositionwiseFeedForward(
              (w_1): Linear(in_features=100, out_features=100, bias=True)
              (w_2): Linear(in_features=100, out_features=100, bias=True)
              (layer_norm): LayerNorm((100,), eps=1e-06, elementwise_affine=True)
              (dropout_1): Dropout(p=0, inplace=False)
              (relu): ReLU()
              (dropout_2): Dropout(p=0, inplace=False)
            )
            (layer_norm): LayerNorm((100,), eps=1e-06, elementwise_affine=True)
            (dropout): Dropout(p=0, inplace=False)
          )
        )
        (layer_norm): LayerNorm((100,), eps=1e-06, elementwise_affine=True)
      )
      (out_map): Linear(in_features=100, out_features=50, bias=True)
    )
    (inp_map): Linear(in_features=100, out_features=50, bias=True)
    (out_gate_map): Linear(in_features=100, out_features=50, bias=True)
  )
  (classifier): Linear(in_features=50, out_features=3, bias=True)
)
Total parameters: 1494203
Training Set: 72
Valid Set: 20
Test Set: 20
Epoch 1------------------------------------------------------------
19/72 train_loss: 1.084012, train_acc: 42.187500
39/72 train_loss: 1.053539, train_acc: 45.781250
59/72 train_loss: 1.032678, train_acc: 47.656250
End of 1 train_loss: 1.0180, train_acc: 49.3142, val_loss: 0.8381, val_acc: 55.2604, f1_score: 0.4946
…
